HW01/models/model.ckpt (torch, 32955 bytes, 7 tensors)

layers.0.weight f4 [64, 77]
0.0586667 0.06770962 -0.1271884 0.01715178 0.031054419 -0.100973465 -0.03727481 -0.08003933
0.09612479 0.10668644 0.039459437 -0.047431067 0.043156788 -0.10529268 -0.12873054 -0.024414804
-0.054164708 0.039669108 -0.11289991 0.08208114 -0.00085976714 -0.10225872 0.06246854 -0.05018076
0.081865676 0.103394195 -0.005003232 -0.08723956 0.05299631 -0.019036202 0.09552355 -0.11030541
-0.023628779 0.05512315 0.03305895 -0.06585451 -0.07541699 0.030048963 0.028717058 0.08419032
0.057017624 -0.07640778 -0.06958655 0.0630345 -0.011212125 -0.08207467 0.12872688 0.06835117
0.08891539 -0.052420188 -0.020634335 0.04639655 -0.05097493 -0.011353377 0.097326115 -0.06742294
-0.024172327 -0.06611688 -0.07918144 0.049242325 0.03930963 0.047948364 0.22756533 -0.00068045064
0.021338739 0.0418926 0.04925586 -0.05170907 0.030864919 0.063673 -0.10592627 -0.007895943
0.0047326493 -0.06620994 0.052893467 -0.007291379 -0.0992477 7.686e-42 -4.0809705e-20 -1.7259511e-21
-2.1449837e-06 2.0456405e-36 -4.0897474e-21 -5.4101966e-11 5.5226213e-21 2.0761286e-15 5.164899e-28 -5.83e-42
-4.967851e-28 2.679e-42 -9.838486e-17 5.97e-43 8.219e-42 4.55e-43 -8.407297e-19 -1.4352228e-20
7.9262094e-07 5.6776264e-38 -5.9659255e-21 -1.6340693e-11 1.0263203e-19 1.1488489e-15 4.7892466e-27 3.949e-42
4.8733236e-31 9.8283e-41 -7.312111e-16 -3.393e-42 -4.338e-42 -6.76e-42 -4.5596727e-18 -3.3815973e-19
-2.8903578e-06 1.2667875e-37 -2.4549806e-20 6.1396645e-11 4.6789206e-20 2.5381626e-15 7.004034e-29 5.2e-43
1.4686391e-33 -6.33e-43 -4.1272125e-16 -5.497257e-34 7.79e-43 7.749e-42 -3.0855522e-18 -2.2086477e-19
-5.0686876e-06 -5.709516e-39 -3.8866794e-21 -7.607726e-11 2.0914506e-19 1.629485e-15 2.0867346e-26 -5.465e-42
1.157517e-36 -4.643e-42 -6.8965947e-16 -1.00436205e-22 -7.367e-42 -7.895e-42 -1.2671796e-18 -1.7688398e-19
-3.2884655e-06 -4.622434e-39 -2.0601814e-21 -5.8876567e-12 8.0216325e-20 2.1100222e-15 -4.2824067e-32 -5.291e-42
1.6399837e-38 2.719e-42 0.03347113 -0.09625204 0.014741366 0.016219033 -0.025942199 0.02314328
0.02711624 0.07285889 0.021814577 -0.08372611 0.010597386 0.04072325 0.080650985 0.01526329
-0.027346417 0.08153716 0.060877863 0.003891645 0.031922914 -0.029051527 0.06351879 -0.058126874
-0.05716855 0.01801296 -0.031265832 -0.04559008 -0.028907841 -0.043997668 -0.10723371 -0.076383054
0.05034666 -0.034023575 0.08383315 0.075584814 0.024704624 0.05577385 0.037256803 -0.012798057
0.0765954 -0.04274362 0.045079913 -0.11416947 -0.045465253 -0.114834554 0.07674958 0.062187444
0.1470988 0.080812626 -0.07809153 0.090212405 0.014322 -0.10663702 0.055708695 -0.02132625
-0.014800167 0.0043864604 0.08386604 0.0022566782 0.0088593885 0.06448745 0.06144584 -0.01039434
0.1272838 0.03384689 0.14160386 -0.022782473 0.045675617 0.023013394 -0.10738091 -0.06340375
-0.005545187 -0.01686221 0.0806321 -0.054662783 0.012350696 -0.047301393 -0.10515097 -0.0561129
-0.051591005 -0.013983018 0.0973755 -0.0026017125 -0.045887273 0.016822545 -0.061421912 0.06318139
0.027638344 -0.066602424 -0.031094296 0.09328919 0.023909371 -0.085933775 -0.04456901 -0.062867545
-0.050978795 0.042923305 -0.08104207 -0.05085603 -0.06748844 -0.008217833 0.08291874 0.053982064
00000000: 7e4c 703d 57ab 8a3d ad3d 02be e481 8c3c
00000010: d665 fe3c 2dcb cebd 79ad 18bd a9eb a3bd
00000020: 13dd c43d 6c7e da3d 38a0 213d 1447 42bd
00000030: 2cc5 303d b0a3 d7bd f0d1 03be 8e01 c8bc
00000040: d0db 5dbd 137c 223d 1138 e7bd 281a a83d
00000050: ff61 61ba 056d d1bd 03df 7f3d 578a 4dbd
00000060: 31a9 a73d 56c0 d33d 27f2 a3bb a8aa b2bd
00000070: a912 593d cff1 9bbc daa1 c33d cee7 e1bd
00000080: 2491 c1bc d0c8 613d d268 073d bbde 86bd
00000090: 3974 9abd 3e29 f63c 0940 eb3c f96b ac3d
000000a0: 508b 693d af7b 9cbd 6583 8ebd 3b18 813d
000000b0: 10b3 37bc c416 a8bd fbd0 033e b3fb 8b3d
000000c0: 4619 b63d 8db6 56bd 5609 a9bc 4f0a 3e3d
000000d0: 17cb 50bd 8403 3abc ea52 c73d 0a15 8abd
000000e0: 0b05 c6bc 4968 87bd e129 a2bd 52b2 493d
000000f0: 2203 213d 8165 443d e306 693e 4560 32ba
00000100: 94ce ae3c 9397 2b3d 83c0 493d e4cc 53bd
00000110: 6dd8 fc3c fd66 823d dfef d8bd fc5d 01bc
00000120: 5714 9b3b 1499 87bd d2a6 583d 85ec eebb
00000130: 6142 cbbd 6d15 0000 e8b7 409f c068 029d
00000140: 8af2 0fb6 1b06 2e04 9c81 9a9d 66f1 6dae
00000150: 84a3 d01d d099 1527 a4ae 2312 4010 0080
00000160: ff6f 1d92 7807 0000 2cdc e2a4 aa01 0000
00000170: e916 0000 4501 0000 bd23 78a1 8f8d 879e
00000180: 7fc4 5435 488f 9a01 e462 e19d f8bb 8fad
00000190: 4155 f21f 0b91 a526 bbb8 bd13 020b 0000
000001a0: fd25 1e0d f911 0100 dbc1 52a6 7509 0080
000001b0: 180c 0080 d812 0080 e438 a8a2 419d c7a0
000001c0: f8f7 41b6 1a6d 2c02 cadd e79e 3d03 872e
000001d0: aef4 5c1f d6e4 3627 c892 b110 7301 0000
000001e0: 0005 f408 c401 0080 e8ea eda5 7ead 3688
000001f0: 2c02 0000 9a15 0000 6fac 63a2 2460 82a0
00000200: b213 aab6 cf2b 3e80 a8d5 929d b14b a7ae
00000210: 37ea 7620 63d5 ea26 02a9 ce14 3c0f 0080
00000220: faf0 c403 f10c 0080 e3c7 46a6 00d7 f29a
00000230: 8914 0080 0216 0080 b100 bba1 e7d3 50a0
00000240: 68af 5cb6 7755 3280 b4a9 1b9d 4c27 cfac
00000250: cb67 bd1f 0a0b 1827 f35a 5e8b c00e 0080
00000260: 1394 b200 9407 0000 0619 093d ca1f c5bd
00000270: c585 713c c7dd 843c bc84 d4bc fa96 bd3c
00000280: e022 de3c 0b37 953d 7cb4 b23c 9878 abbd
00000290: a9a0 2d3c 6ccd 263d 582c a53d e112 7a3c
000002a0: 9805 e0bc f4fc a63d 115b 793d f80a 7f3b
000002b0: 9ac1 023d 78fd edbc 2416 823d 7216 6ebd
000002c0: 9229 6abd ea8f 933c 9a10 00bd aabc 3abd
000002d0: 23d0 ecbc e636 34bd 599d dbbd b86e 9cbd
000002e0: 4d38 4e3d 4e5c 0bbd b7b0 ab3d 36cc 9a3d
000002f0: 5a61 ca3c 1f73 643d 979a 183d f1ae 51bc
00000300: 0dde 9c3d ef13 2fbd b7a5 383d afd1 e9bd
00000310: c639 3abd 612e ebbd e22e 9d3d 43b8 7e3d
00000320: 11a1 163e 1781 a53d 74ee 9fbd 48c1 b83d
00000330: d2a6 6a3c 8364 dabd cd2e 643d 63b4 aebc
00000340: 667c 72bc 4cbc 8f3b f5c1 ab3d c7e4 133b
00000350: f826 113c ff11 843d a2ae 7b3d 064d 2abc
00000360: af56 023e 09a3 0a3d 9a00 113e 4fa2 babc
00000370: 5b16 3b3d 9686 bc3c 86ea dbbd d3d9 81bd
00000380: 66b4 b5bb 9e22 8abc 7122 a53d 15e6 5fbd
00000390: 935a 4a3c 1bbf 41bd 6459 d7bd a4d6 65bd
000003a0: 1751 53bd 0719 65bc ce6c c73d 7e81 2abb
000003b0: 4bf4 3bbd 6fcf 893c 8b95 7bbd 3f65 813d
000003c0: cf69 e23c da66 88bd 77b9 febc 670e bf3d
000003d0: 96dd c33c 0cfe afbd ff8d 36bd b3c0 80bd
000003e0: 24cf 50bd 59d0 2f3d 63f9 a5bd 6a4e 50bd
000003f0: 6137 8abd 17a4 06bc 4dd1 a93d 4c1c 5d3d

layers.0.bias f4 [64]
-0.11070981 9.246e-42 0.095110714 0.014800819 -0.06612977 0.0064595593 -0.07658071 0.119028516
-1.0137e-41 6.29e-42 0.05741977 0.00049136573 1.1072006e-12 -0.000926978 -4.651798e-21 0.080757104
0.045102492 -0.09012382 0.099370405 -0.072319254 -0.05620682 0.030159641 0.0013382948 -0.07971734
0.002473163 -0.035023246 -3.81e-43 0.109289445 0.05555311 0.08047033 1.452e-42 -0.097788535
-0.04997772 0.07899444 1.89e-43 0.0025131395 -2.592e-42 3.393e-42 -1.0970153e-11 0.1018593
0.10502084 0.054469936 -0.077676475 -0.029864071 4.368e-42 -0.021464141 0.012980907 -0.052606933
5.322e-42 0.0013529193 -6.592e-42 -0.0015049718 0.03833118 0.040442273 -4.72e-42 0.10017166
-0.03528392 -0.059742842 0.08641055 0.016635355 -0.084462784 -7.846e-42 0.062205326 0.007228022
00000000: d3bb e2bd c619 0000 68c9 c23d 227f 723c
00000010: 0b6f 87bd b6aa d33b 59d6 9cbd 39c5 f33d
00000020: 421c 0080 8911 0000 fe30 6b3d ffce 003a
00000030: 1bd3 9b2b 7100 73ba 6ebd af9d fb63 a53d
00000040: 64bd 383d d692 b8bd b682 cb3d 1e1c 94bd
00000050: 1f39 66bd 5a11 f73c b969 af3a d842 a3bd
00000060: ca14 223b 8974 0fbd 1001 0080 25d3 df3d
00000070: a88b 633d a1cd a43d 0c04 0000 5b45 c8bd
00000080: 70b5 4cbd d6c7 a13d 8700 0000 7cb3 243b
00000090: 3a07 0080 7509 0000 2dfd 40ad 9c9b d03d
000000a0: 2b15 d73d de1b 5f3d d814 9fbd 7fa5 f4bc
000000b0: 2d0c 0000 91d5 afbc dfad 543c 5e7a 57bd
000000c0: d60e 0000 7054 b13a 6012 0080 7942 c5ba
000000d0: 2801 1d3d cca6 253d 280d 0080 cd26 cd3d
000000e0: df85 10bd e9b4 74bd 04f8 b03d de46 883c
000000f0: d3fa acbd df15 0080 03cb 7e3d 0bd9 ec3b

layers.3.weight f4 [32, 64]
0.015856272 1.483e-42 -0.025396695 -0.106727004 -0.03328527 0.019259665 0.0043589403 -0.16052303
3.209e-42 8.665467e-11 0.05541708 0.0070479102 -4.9309423e-27 -0.029457644 -6.805492e-21 0.00048158437
0.09194202 -0.008313513 -0.026218101 0.08682648 0.06692873 -0.008849888 -0.015089257 0.073658325
0.0072502336 -0.16537707 -2.794e-41 -0.08610185 -0.13325031 -0.091380134 1.323e-42 0.07260278
-0.05685752 -0.0022323504 2.255e-42 0.032600112 4.267e-42 -3.59e-43 -2.6233838e-08 -0.007932179
-0.12153995 0.00847668 -0.020490639 0.097340465 -6.55e-42 -0.10423143 -0.015432902 -0.09592528
2.7303376e-10 0.030420374 -1.118e-42 -0.0008999267 -0.10672547 -0.029876005 1.84e-42 -0.063728146
-0.014350225 -0.036802024 0.09847504 0.08766975 -0.076324776 -3.353e-42 0.10130401 -0.010608236
-0.053189717 -7.8e-43 0.019196426 0.09678144 -0.14516395 0.067023546 0.12593284 0.116779156
2.238e-42 -1.572358e-05 0.04741546 -0.009592838 3.14966e-10 0.027892854 8.5221975e-11 0.07483993
-0.08117305 0.024681559 0.13163881 -0.0071229204 -0.08071635 -0.08683495 0.03437657 0.048474565
-0.08856026 0.13945313 2.176e-42 -0.02519381 0.032948676 -0.028820563 -0.00012536946 0.06339665
-0.075333156 -0.051469296 -4.299e-42 0.007814954 1.20417244e-26 -2.73e-42 0.0018917186 -0.047177844
-0.08351174 -0.06690146 0.09268427 0.031424876 -2.3948585e-10 0.01562781 -0.1209761 -0.0031851912
-0.0014800903 0.00972471 -1.4666206e-20 -0.0018635266 -0.06696488 0.023873292 1.0946082e-15 0.12038176
-0.07096833 -0.019823859 0.026891049 0.068448044 0.121993124 7.294e-42 0.03520169 0.14259939
0.061191626 1.969e-42 0.009296221 0.11838638 -0.09814336 -0.019789912 -0.029766956 0.15019797
-9.134e-42 -2.9412453e-05 -0.11096792 -0.076011546 2.6942732e-12 0.007869534 1.081638e-11 0.05466664
-0.06627759 0.08432861 0.020762468 0.07280064 0.08514529 0.11670342 -0.02752276 -0.09319205
-0.057188008 0.06512239 1.464e-42 0.14272365 -0.03725826 0.015549386 -0.000901375 0.046050042
0.0064155837 0.01353723 -9.540859e-14 0.00641457 -1.396732e-07 -8.988e-42 0.001356294 0.119899295
0.04783624 0.029907934 0.12833251 0.05816241 1.314e-42 0.026137553 0.012864512 0.06049976
-0.001804911 0.010560765 4.874e-42 -0.0021614302 0.10167877 -0.05715117 -2.353e-42 -0.014107091
0.064963415 0.01767257 -0.14177975 0.038253248 -0.023333972 6.72e-42 -0.025839986 0.12830752
-0.0068515944 -6.155e-42 -0.04654288 0.061119497 -0.050710853 0.005819162 -0.051360793 -0.019088978
-1.0835e-41 -6.649e-42 -0.102459036 -0.028437776 -8.013e-42 -0.04039817 1.1254e-41 -0.09295792
-0.11878449 -0.038954966 -0.047753982 -0.102141395 -0.059018333 0.027163414 0.08118538 -0.07771718
-0.009595164 0.030991208 6.253e-42 -0.039436832 -0.09755001 0.0859325 -2.4043e-41 0.015707286
-0.033968627 -0.09833175 -8.642e-42 -0.022635087 2.141e-42 -8.94e-43 2.151e-42 -0.032408748
0.06436489 0.09219173 -0.11109369 0.0723135 -3.066e-42 -0.051855866 -0.0927564 0.07941451
7.689e-42 -0.025021 8.823e-42 -0.0021542567 -0.03696989 0.10985932 7.84e-42 -0.0862908
-0.015504354 -0.079475805 0.0071644313 -0.089900084 -0.12307102 5.206e-42 0.018261334 -0.00091548037
00000000: 03e5 813c 2204 0000 bb0c d0bc b093 dabd
00000010: 2356 08bd 72c6 9d3c 71d5 8e3b 2660 24be
00000020: f208 0000 3e8e be2e 05fd 623d 28f2 e63b
00000030: b255 c393 2851 f1bc 578d 009e 297d fc39
00000040: 194c bc3d 6735 08bc 58c7 d6bc 15d2 b13d
00000050: ee11 893d 1fff 10bc ee38 77bc 2dda 963d
00000060: 5e93 ed3b 9b58 29be e34d 0080 2b56 b0bd
00000070: c572 08be 8225 bbbd b003 0000 c4b0 943d
00000080: 6ee3 68bd a04c 12bb 4906 0000 b287 053d
00000090: e50b 0000 0001 0080 d258 e1b2 f8f5 01bc
000000a0: f0e9 f8bd c6e1 0a3c fcdb a7bc 705a c73d
000000b0: 4212 0080 4a77 d5bd 48da 7cbc 7974 c4bd
000000c0: 161a 962f 2634 f93c 1e03 0080 0fe9 6bba
000000d0: e292 dabd 86be f4bc 2105 0000 e783 82bd
000000e0: 351d 6bbc b8bd 16bd 48ad c93d 338c b33d
000000f0: 2a50 9cbd 5909 0080 7a78 cf3d 2bce 2dbc
00000100: 76dd 59bd 2d02 0080 d341 9d3c 5935 c63d
00000110: dca5 14be a443 893d 8af4 003e e929 ef3d
00000120: 3d06 0000 22e6 83b7 b736 423d 472b 1dbc
00000130: 8627 ad2f 8e7f e43c b567 bb2e ad45 993d
00000140: 0e3e a6bd fb30 ca3c 53cc 063e 6367 e9bb
00000150: 9d4e a5bd 86d6 b1bd 72ce 0c3d 448d 463d
00000160: 155f b5bd cdcc 0e3e 1106 0000 4063 cebc
00000170: 31f5 063d 1a19 ecbc 9c75 03b9 1ad6 813d
00000180: 4548 9abd 78d1 52bd fc0b 0080 4b0a 003c
00000190: cc82 6e14 9c07 0080 8bf3 f73a 8e3d 41bd
000001a0: 3408 abbd a203 89bd 40d1 bd3d 5fb7 003d
000001b0: a3a8 83af e505 803c 51c2 f7bd a4be 50bb
000001c0: 97ff c1ba 6454 1f3c b684 8a9e 9441 f4ba
000001d0: e224 89bd ec91 c33c eabf 9d26 b68a f63d
000001e0: d857 91bd a565 a2bc 9e4a dc3c 7d2e 8c3d
000001f0: 88d7 f93d 5514 0000 a62f 103d 9305 123e
00000200: 12a4 7a3d 7d05 0000 2d4f 183c 8f74 f23d
00000210: 63ff c8bd 741e a2bc d5d9 f3bc 7fcd 193e
00000220: 7619 0080 c3ba f6b7 2643 e3bd f1ab 9bbd
00000230: b697 3d2c 38ef 003c a548 3e2d 20ea 5f3d
00000240: 8cbc 87bd 7ab4 ac3d 0d16 aa3c 8018 953d
00000250: a760 ae3d 3402 ef3d 6977 e1bc 79db bebd
00000260: f93d 6abd e35e 853d 1504 0000 2626 123e
00000270: 1e9c 18bd dac2 7e3c 414a 6cba f89e 3c3d
00000280: d139 d23b 42cb 5d3c 4fd7 d6a9 5031 d23b
00000290: 14f9 15b4 0e19 0080 adc5 b13a c38d f53d
000002a0: efef 433d 7c01 f53c 9969 033e b53b 6e3d
000002b0: aa03 0000 6c1e d63c adc5 523c 99ce 773d
000002c0: c392 ecba 0f07 2d3c 960d 0000 c8a6 0dbb
000002d0: f53c d03d 5817 6abd 8f06 0080 6e21 67bc
000002e0: 8a0b 853d 11c6 903c b62e 11be 70af 1c3d
000002f0: e326 bfbc bc12 0000 61ae d3bc 0c63 033e
00000300: 5783 e0bb 2811 0080 bfa3 3ebd 7058 7a3d
00000310: 2fb6 4fbd abae be3b b25f 52bd 7d60 9cbc
00000320: 341e 0080 8912 0080 0bd6 d1bd 57f6 e8bc
00000330: 5616 0080 8d78 25bd 5f1f 0000 b960 bebd
00000340: 4845 f3bd 3e8f 1fbd ae99 43bd 822f d1bd
00000350: 35bd 71bd cf85 de3c 8544 a63d 2f2a 9fbd
00000360: 0935 1dbc 46e1 fd3c 6e11 0000 8488 21bd
00000370: 4dc8 c7bd 61fd af3d 0643 0080 91ac 803c
00000380: b022 0bbd 2862 c9bd 1718 0080 386d b9bc
00000390: f805 0000 7e02 0080 ff05 0000 09bf 04bd
000003a0: bdd1 833d 05cf bc3d 1785 e3bd 1a19 943d
000003b0: 8c08 0080 d166 54bd 11f7 bdbd 13a4 a23d
000003c0: 6f15 0000 d7f8 ccbc 9818 0000 6e2e 0dbb
000003d0: bd6d 17bd ecfd e03d db15 0000 3bb9 b0bd
000003e0: f905 7ebc 36c4 a2bd 9bc3 ea3b 891d b8bd
000003f0: a90c fcbd 830e 0000 cb98 953c d9fc 6fba

layers.3.bias f4 [32]
0.069938265 0.31908253 0.3775948 0.053604744 0.3182931 0.1311399 0.11929544 0.343385
0.2668743 0.23804201 0.3196612 0.23493576 -0.0065985266 0.2700923 0.32054877 0.22490624
0.19595005 0.32551968 0.25322175 0.2590207 0.25449023 0.31950638 0.2473117 -0.14044973
-0.0037538912 0.20191921 0.18037355 0.1863192 0.19281927 0.32093644 0.15862119 0.1344141
00000000: cb3b 8f3d c95e a33e 1b54 c13e a690 5b3d
00000010: 50f7 a23e 8a49 063e 2b51 f43d 29d0 af3e
00000020: c0a3 883e 49c1 733e a2aa a33e 0093 703e
00000030: 7438 d8bb 8a49 8a3e f81e a43e d24d 663e
00000040: 21a7 483e 84aa a63e 48a6 813e 5c9e 843e
00000050: 8b4c 823e 5796 a33e 473f 7d3e 0ed2 0fbe
00000060: d803 76bb e9c3 4e3e d8b3 383e 76ca 3e3e
00000070: 6a72 453e c851 a43e 986d 223e daa3 093e

layers.6.weight f4 [16, 32]
-0.15264441 -0.0316595 0.047634568 -0.15292385 0.12638794 -0.044426206 0.12687063 0.12745002
-0.049380004 0.15225002 0.1969858 0.040803455 -0.12575293 0.10276211 0.14345163 0.1469235
0.02816069 0.058063973 -0.0046535567 -0.08749632 0.047565408 -0.13521802 0.0019148536 -0.04597251
0.0060708374 0.019655794 0.05605641 0.15268959 0.10533751 0.03951569 0.0022145049 0.06624499
-0.13940956 0.09842119 0.104656234 -0.010611699 0.052547846 0.11339374 -0.08697132 0.0615605
0.053722102 0.18956865 0.12133142 0.10133587 0.122577764 -0.07860038 0.010408075 0.1793015
0.19103308 0.1520077 0.17793235 0.09789546 0.0047677546 0.080926344 0.054226555 -0.10762669
0.0037648906 0.18263714 0.19231121 0.035200737 -0.0076428344 -0.061391603 0.013330059 -0.033930413
0.13428488 -0.04854336 -0.016216228 0.109721236 0.06767564 -0.098787665 -0.11206105 0.017780688
-0.046512723 -0.07341636 -0.13925423 0.09344473 0.018149624 0.03343213 0.13017668 -0.045678213
-0.1132893 -0.12308707 0.10025936 -0.10559755 -0.06239782 -0.11552985 0.10043953 0.08919728
-1.0178858e-05 -0.1293078 -0.08098463 0.009609701 -0.07291782 -0.11899384 -0.037227787 -0.030155107
-0.1317557 0.044837568 -0.11281735 -0.0029703302 0.05315009 0.1408637 0.14641668 0.044331923
0.09674274 0.057996374 -0.05752904 0.051855914 0.14520574 0.11028095 0.14960513 0.15614548
0.12360908 0.07049481 0.068031915 0.1537384 -0.07570748 0.14517751 0.09174163 -0.02056625
0.0038936224 0.023374215 0.15254517 0.029053483 0.030019376 0.16803794 -0.03643982 -0.085187994
-0.1278521 -0.16937874 -0.1527967 -0.08404702 -0.20132683 -0.15865715 -0.099404894 0.041192457
0.05770114 0.09566014 -0.076959625 0.13216206 -0.08238763 0.025565576 0.13528316 -0.12272581
-0.16727045 -0.13910143 0.12686299 -0.029712753 0.003101435 -0.21210796 -0.17718288 -0.047785226
2.8934662e-06 -0.08170723 -0.12309723 0.080131434 -0.0030848554 0.028879179 -0.18839754 0.049168043
0.016141687 -0.14296299 -0.14017002 -0.12581876 -0.0022495813 -0.053155273 0.039098393 0.09070162
-0.085401095 0.022573413 0.069559306 0.118594885 0.00047200694 -0.027761707 -0.0021651802 -0.16522537
-0.16075236 -0.109368384 0.05686036 -0.081844985 -0.07806799 0.014094546 -0.1807623 -0.054565072
-0.00015618517 -0.18968403 0.11987016 0.011456401 -0.024771402 -0.119311616 0.05005023 -0.06582643
-0.022154525 0.03075888 0.12871777 -0.04856149 0.08797907 -0.047442235 0.1671209 0.094872646
0.026209978 0.059639536 0.026097827 0.2720972 0.03094155 0.025131846 -0.04449621 0.05751136
-0.1005746 -0.03757239 0.16993508 0.097544305 0.17802554 -0.05894577 0.06282329 -0.05421266
-0.011123484 0.005204811 -0.111008376 0.21451442 0.18761584 -0.03463517 0.17664129 0.11816701
-0.044389363 0.119493425 0.14836696 0.055981856 0.16353782 0.1184278 0.051690713 0.12064186
0.16242255 0.01855282 0.15704867 0.022207601 -0.05123085 0.11410368 0.16213475 -0.01971508
0.13571812 0.008211237 0.19830915 0.17914505 -0.020848718 0.26029006 -0.013510607 0.039886534
-0.0039412784 0.15373045 0.1734596 0.2455504 0.0074529564 0.15487286 0.005089292 0.16354156
00000000: d14e 1cbe 64ad 01bd 771c 433d 1298 1cbe
00000010: d76b 013e 41f8 35bd 60ea 013e 4282 023e
00000020: b042 4abd 6ee7 1b3e a5b6 493e 8621 273d
00000030: 60c5 00be f174 d23d fce4 123e 1d73 163e
00000040: 3fb1 e63c 7dd4 6d3d dd7c 98bb 4531 b3bd
00000050: f2d3 423d 9876 0abe d3fb fa3a ac4d 3cbd
00000060: e0ed c63b 3005 a13c 689b 653d a95a 1c3e
00000070: 31bb d73d 34db 213d 3a21 113b 74ab 873d
00000080: 61c1 0ebe 0d91 c93d 0256 d63d b1dc 2dbc
00000090: 693c 573d fa3a e83d 051e b2bd dd26 7c3d
000000a0: b50b 5c3d 491e 423e 9c7c f83d 2e89 cf3d
000000b0: 0d0a fb3d 3cf9 a0bd a186 2a3c d09a 373e
000000c0: 2d9e 433e e8a7 1b3e e633 363e 6a7d c83d
000000d0: d33a 9c3b b6bc a53d aa1c 5e3d 626b dcbd
000000e0: 62bc 763b 3b05 3b3e 3bed 443e a62e 103d
000000f0: be70 fabb c375 7bbd 5266 5a3c 9efa 0abd
00000100: fa81 093e 67d5 46bd e5d7 84bc 87b5 e03d
00000110: 8799 8a3d 3051 cabd 4480 e5bd cea8 913c
00000120: 2084 3ebd 515b 96bd a998 0ebe f35f bf3d
00000130: 85ae 943c 21f0 083d 094d 053e 1419 3bbd
00000140: 3804 e8bd 1315 fcbd c854 cd3d 8743 d8bd
00000150: db94 7fbd ea9a ecbd 3eb3 cd3d 10ad b63d
00000160: ddc5 2ab7 4469 04be 45db a5bd 0272 1d3c
00000170: f055 95bd 0bb3 f3bd 2a7c 18bd d807 f7bc
00000180: f7ea 06be 99a7 373d c80c e7bd dfa9 42bb
00000190: e9b3 593d 933e 103e 41ee 153e 6495 353d
000001a0: 0f21 c63d 9b8d 6d3d 92a3 6bbd de66 543d
000001b0: d0b0 143e fbda e13d 1632 193e 9ae4 1f3e
000001c0: c226 fd3d 955f 903d 5154 8b3d 996d 1d3e
000001d0: 860c 9bbd 6aa9 143e 09e3 bb3d 8d7a a8bc
000001e0: 252c 7f3b 487b bf3c cd34 1c3e 9201 ee3c
000001f0: 32eb f53c 2312 2c3e ec41 15bd 0b77 aebd
00000200: a9eb 02be 9f71 2dbe bd76 1cbe d820 acbd
00000210: 9f28 4ebe 0577 22be cb94 cbbd 6cb9 283d
00000220: 0858 6c3d 77e9 c33d 029d 9dbd 7e55 073e
00000230: d9ba a8bd e66e d13c ab87 0a3e ab57 fbbd
00000240: f248 2bbe 9b70 0ebe 5fe8 013e 2968 f3bc
00000250: 7241 4b3b d432 59be 6e6f 35be 71ba 43bd
00000260: 5f2d 4236 1f56 a7bd 671a fcbd f31b a43d
00000270: 492b 4abb 0794 ec3c 49eb 40be 6e64 493d
00000280: 923b 843c e464 12be bb88 0fbe a2d6 00be
00000290: b66d 13bb 58b9 59bd a325 203d c5c1 b93d
000002a0: c5e6 aebd e1eb b83c 1c75 8e3d e0e1 f23d
000002b0: b377 f739 856c e3bc b2e5 0dbb d730 29be
000002c0: 449c 24be 88fc dfbd 69e6 683d 589e a7bd
000002d0: 1ce2 9fbd d0ec 663c c119 39be a07f 5fbd
000002e0: a3c5 23b9 883c 42be 7d7e f53d a1b3 3b3c
000002f0: 65ed cabc a659 f4bd 7801 4d3d 02d0 86bd
00000300: 687d b5bc 0cfa fb3c 97ce 033e 6ae8 46bd
00000310: 5f2e b43d ca52 42bd be21 2b3e 974c c23d
00000320: 4fb6 d63c 9648 743d 1ccb d53c 5350 8b3e
00000330: 2279 fd3c 4de1 cd3c a841 36bd 0891 6b3d
00000340: 0efa cdbd 82e5 19bd 7603 2e3e 4fc5 c73d
00000350: 544c 363e 1f71 71bd 7fa9 803d 180e 5ebd
00000360: 463f 36bc 1f8d aa3b 5c58 e3bd aba9 5b3e
00000370: 5e1e 403e 9cdd 0dbd 74e1 343e 8c01 f23d
00000380: 9fd1 35bd f8b8 f43d 82ed 173e 3b4d 653d
00000390: 7576 273e 468a f23d a4b9 533d 1413 f73d
000003a0: 1952 263e 15fc 973c 5ed1 203e b7ec b53c
000003b0: 71d7 51bd 31af e93d a706 263e 8581 a1bc
000003c0: b1f9 0a3e 6d88 063c 8e11 4b3e cd71 373e
000003d0: eeca aabc bd44 853e 985b 5dbc 1060 233d
000003e0: d725 81bb 846b 1d3e 659f 313e 9071 7b3e
000003f0: ee37 f43b fe96 1e3e 13c4 a63b 7077 273e

layers.6.bias f4 [16]
0.35707662 0.30741754 -0.055591375 0.23892573 -0.17638278 -0.053867776 0.39536807 0.6829246
0.34691274 0.41464594 0.56799704 0.07719212 0.5718475 0.41732424 -0.1067897 -0.026657755
00000000: bfd2 b63e d565 9d3e c8b3 63bd f2a8 743e
00000010: b09d 34be 75a4 5cbd af6d ca3e 26d4 2e3f
00000020: 8c9e b13e 794c d43e 4168 113f e716 9e3d
00000030: 9964 123f 86ab d53e 8fb4 dabd 5d61 dabc

layers.9.weight f4 [1, 16]
0.20242062 0.13004753 -0.089833565 0.16240843 -0.14683296 -0.16174145 0.1593688 0.089819364
0.15959287 0.090702 0.09449082 -0.14633383 0.21567672 0.0848933 -0.01048156 -0.099274404
00000000: 5a47 4f3e 2e2b 053e a9fa b7bd 654e 263e
00000010: 615b 16be 8d9f 25be 9331 233e 37f3 b73d
00000020: 506c 233e f8c1 b93d 6784 c13d 89d8 15be
00000030: 5cda 5c3e 8adc ad3d d9ba 2bbc 6150 cbbd
