HW01/models/True_Adam_model.ckpt (torch, 7623 bytes, 5 tensors)

layers.0.weight f4 [16, 77]
0.0063097943 0.084550194 -0.07380612 0.0082689 0.033013906 -0.08723799 -0.007998372 -0.05893004
0.10680062 0.087358184 0.012080825 -0.029720813 0.033806656 -0.07268475 0.005254533 4.4017364e-05
-0.0010574345 0.064605646 -0.05850971 0.0705026 0.0084439395 -0.088218324 0.08434395 -0.03280215
0.09461537 0.08349862 -0.005626995 -0.06026881 0.03552468 0.0055284626 0.18661922 -0.0034252491
0.0019767992 0.0823786 0.063788764 -0.06356422 -0.04793122 0.0312955 0.050694652 0.085604586
0.07395275 -0.06414997 -0.03218326 0.052558836 -0.005945996 -0.048488677 0.20655766 0.012911751
0.01666438 -0.004384739 0.023583217 0.043097436 -0.029721621 -0.004484729 0.11354228 -0.051105034
-0.0007465691 -0.056999028 -0.039887022 0.046959817 0.028569153 0.06699657 0.2208281 0.011555521
0.013321687 0.074992836 0.081361234 -0.04311976 0.03294221 0.064151965 -0.077666335 0.00086103735
0.026313487 -0.057246577 0.014840565 0.008659316 -0.062549345 -0.0011175745 -0.030352477 -0.05258704
-0.005022664 -0.0028543428 -0.015250366 -0.0016548203 0.010167807 0.0066852947 -0.0067165024 0.0061877207
-0.013274409 -0.0031737569 0.012107445 0.060099456 -0.0009265922 -0.0004793641 -0.020073244 -0.023877444
0.030557862 0.016132217 -0.014840965 0.009030487 0.022639325 -0.00016419253 -0.018022193 0.0047891345
-0.019006636 -0.014323116 0.016520267 0.08827976 -0.00019972863 0.0008195785 -0.019736612 -0.040563118
0.0007044533 0.015395831 -0.015145264 0.035497505 0.010851104 -0.024180042 -0.015967032 0.0007105284
-0.020205826 -0.017381972 0.012143059 0.12455128 0.0051639043 0.0063154823 -0.012229562 -0.022204598
-0.0039020698 0.031518053 -0.014762882 -0.009754273 0.008458965 -0.0017274306 -0.012761026 0.0053827115
-0.003912276 -0.019906247 0.039438035 0.15580729 0.012105636 0.011755874 -0.0025638333 -0.029299147
0.00490698 0.01224549 -0.016705742 0.010890763 0.00683641 -0.00054348074 -0.014705509 -0.007615141
-0.04132981 -0.02040664 0.0009112083 -0.09025056 0.00071697234 0.042076357 -0.012193219 0.03829869
0.043335356 0.06400146 0.042321157 -0.060516827 0.0168612 0.043507922 0.06510662 0.013041476
-0.099865 0.0019333466 0.0010240941 -0.013226449 0.008340527 -0.004584661 0.056039754 -0.033199918
-0.035145365 0.021983894 -0.001054517 -0.027827805 0.005900078 -0.019400869 -0.057490114 -0.065277435
-0.08911266 -0.0018628616 0.00086029485 0.039433714 -0.0023335107 0.06640758 0.039551407 0.0075328965
0.087563396 -0.027341804 0.07166921 -0.07688083 0.0019797266 -0.06630142 0.06405893 0.055539813
-0.077408716 -0.0036690515 -0.013749794 0.042569444 -0.018243745 -0.08330981 0.055281226 -0.00022117945
0.0030703375 0.013621593 0.10577327 0.015418166 0.017216126 0.060209323 0.05907229 -0.0086444225
-0.22577742 -0.01256006 -0.00977862 -0.06433011 -0.0077142264 0.029655738 -0.058120117 -0.03401997
0.013747811 -0.00039991384 0.10734692 -0.024500243 0.020201536 -0.017062442 -0.04291413 -0.0002387465
-0.033355445 -0.025130235 0.038903553 0.031874076 -0.012356833 0.0391521 -0.00062834093 0.049454745
0.015804041 0.0021001794 -0.010884726 0.0018321829 0.03022492 -0.0075338692 -0.00026062454 -0.00015279259
-0.031033838 -0.012990969 -0.064448774 0.023123655 -0.021267744 0.022616541 0.056782052 0.044207096
00000000: 64c2 ce3b a728 ad3d aa27 97bd 487a 073c
00000010: 9739 073d d5a9 b2bd 9b0b 03bc a060 71bd
00000020: 49ba da3d d9e8 b23d a7ee 453c 1079 f3bc
00000030: d978 0a3d bedb 94bd 382e ac3b 499f 3838
00000040: 9d99 8aba f74f 843d e1a7 6fbd ab63 903d
00000050: 7358 0a3c cfab b4bd 85bc ac3d 8c5b 06bd
00000060: b4c5 c13d 5301 ab3d a862 b8bb 6ddc 76bd
00000070: 5482 113d 1b28 b53b 1c19 3f3e 257a 60bb
00000080: 308d 013b 1db6 a83d afa3 823d f52d 82bd
00000090: 8753 44bd b62f 003d 32a5 4f3d 7551 af3d
000000a0: 8a74 973d 0f61 83bd 98d2 03bd ef47 573d
000000b0: a1d6 c2bb 109c 46bd da83 533e cf8b 533c
000000c0: bd83 883c dbad 8fbb 9731 c13c f086 303d
000000d0: c27a f3bc a2f4 92bb db88 e83d 8353 51bd
000000e0: 67b5 43ba d077 69bd 9360 23bd f058 403d
000000f0: db09 ea3c 7f35 893d c320 623e 5e53 3d3c
00000100: 3443 5a3c d895 993d b8a0 a63d 589e 30bd
00000110: 69ee 063d 1b62 833d 870f 9fbd 3db7 613a
00000120: 628f d73c 637b 6abd d725 733c cedf 0d3c
00000130: df19 80bd 947b 92ba c2a5 f8bc 8265 57bd
00000140: 2995 a4bb ed0f 3bbb acdc 79bc 8ee6 d8ba
00000150: e096 263c 5110 db3b 1b16 dcbb 5dc2 ca3b
00000160: e87c 59bc cefe 4fbb 4e5e 463c d92a 763d
00000170: 8de6 72ba 2953 fbb9 a570 a4bc a19a c3bc
00000180: 7b54 fa3c b627 843c 8527 73bc 9cf4 133c
00000190: 1b76 b93c 192b 2cb9 47a3 93bc 2cee 9c3b
000001a0: ceb3 9bbc 81ab 6abc 8355 873c 05cc b43d
000001b0: 3f6e 51b9 fbd8 563a adae a1bc 8325 26bd
000001c0: 10ab 383a cc3e 7c3c d723 78bc d565 113d
000001d0: d4c8 313c 3915 c6bc 4bcd 82bc c142 3a3a
000001e0: b086 a5bc a364 8ebc aef3 463c be14 ff3d
000001f0: f835 a93b 1bf2 ce3b 805e 48bc 6be6 b5bc
00000200: deb9 7fbb 1319 013d 04e0 71bc 63d0 1fbc
00000210: 7997 0a3c f46a e2ba 9f13 51bc 7561 b03b
00000220: 8d32 80bb 6d12 a3bc c789 213d f28b 1f3e
00000230: b856 463c b69b 403c fc05 28bb c404 f0bc
00000240: bbca a03b 4fa1 483c 7bda 88bc 2c6f 323c
00000250: f703 e03b 6078 0eba 60ef 70bc 6f88 f9bb
00000260: 7249 29bd d32b a7bc 27de 6e3a 49d5 b8bd
00000270: 33f3 3b3a 4258 2c3d 11c6 47bc 16df 1c3d
00000280: 6a80 313d 3313 833d f358 2d3d 7ee0 77bd
00000290: 8020 8a3c 5d35 323d 9f56 853d eaab 553c
000002a0: 0586 ccbd 5968 fd3a e53a 863a bfb3 58bc
000002b0: b5a6 083c ed3a 96bb f189 653d a3fc 07bd
000002c0: 96f4 0fbd 9117 b43c b837 8aba 23f7 e3bc
000002d0: 7155 c13b 92ee 9ebc c17a 6bbd 2db0 85bd
000002e0: b380 b6bd 432b f4ba 6985 613a 3f85 213d
000002f0: d0ed 18bb b300 883d a800 223d 84d6 f63b
00000300: 7054 b33d ebfb dfbc 4fc7 923d b273 9dbd
00000310: 4dbe 013b 0ac9 87bd 5431 833d b77d 633d
00000320: 7688 9ebd 7874 70bb d146 61bc 4c5d 2e3d
00000330: e873 95bc 559e aabd 916e 623d 68ec 67b9
00000340: b737 493b 1a2d 5f3c a89f d83d 7a9c 7c3c
00000350: d508 8d3c 0d9e 763d c9f5 713d 56a1 0dbc
00000360: 3232 67be b6c8 4dbc 8136 20bc 81bf 83bd
00000370: 9fc7 fcbb 97f0 f23c 5c0f 6ebd 8658 0bbd
00000380: 803e 613c 87ab d1b9 b4d8 db3d bcb4 c8bc
00000390: b17d a53c 89c6 8bbc bac6 2fbd 0758 7ab9
000003a0: b89f 08bd ecdd cdbc 5559 1f3d 648e 023d
000003b0: 5074 4abc f45d 203d 3fb7 24ba 0f91 4a3d
000003c0: 7a77 813c 2aa3 093b da55 32bc db25 f03a
000003d0: 409a f73c adde f6bb 6fa4 88b9 f336 20b9
000003e0: ad3a febc 13d8 54bc b8fd 83bd d26d bd3c
000003f0: b139 aebc 5346 b93c 4c94 683d 8012 353d

layers.0.bias f4 [16]
0.0010880528 0.0028244003 -0.0010901206 0.0005165235 0.0012959748 0.00086688227 -2.2e-44 0.004410754
-7.0748196e-05 3.8813652e-10 0.0012531325 3e-45 -0.001283394 0.00024882308 0.001735862 -0.0033616677
00000000: fe9c 8e3a 9319 393b 61e2 8eba 4e67 073a
00000010: b3dd a93a 7c3f 633a 1000 0080 1688 903b
00000020: a65e 94b8 5c61 d52f 2640 a43a 0200 0000
00000030: 8f37 a8ba 7874 8239 dd85 e33a 6d4f 5cbb

layers.2.weight f4 [8, 16]
1.2962052e-36 -3.5591156e-17 -2.5768231e-05 2.7e-44 -6e-45 -2.8514945e-20 0.014769779 1.2442724e-06
0.00018028755 3.5e-44 -1.169455e-13 -3.993155e-06 2.2060976e-20 -1.645509e-06 -0.010924698 6e-45
-0.0002938893 0.00070639164 -0.0043340926 -0.00061582803 6e-45 8e-45 -0.0 2.7e-44
6e-45 2.0260428e-13 -5.9862785e-08 0.0018896062 0.006184806 -0.0010137997 -1.0688607e-08 3.6232278e-10
0.23614484 0.10528693 0.034372076 -0.14900559 -0.1082086 0.1307989 -0.019880723 0.26188606
-0.0028211582 -2.568481e-09 0.24121384 1.4e-44 -0.066400655 0.008316436 -0.022276353 -0.036784314
-0.09871115 -0.06527357 0.10913839 0.13339065 -0.013326361 0.026553538 1e-45 -0.0588639
0.0030557094 3.3668277e-09 0.05638396 -0.014285527 -0.024323834 0.002159443 -0.024081344 0.062484257
0.0669038 0.23268746 -0.18270361 0.21173257 0.06779942 -0.024458243 4e-45 0.20549683
-0.008969737 -2.1576219e-09 0.0071270657 -1.1389537e-14 -0.040420845 0.02625283 0.047866616 -0.18747067
0.07272922 -0.07067001 0.048431937 -0.11472081 0.06286767 0.045591168 -0.028017484 -0.03363649
0.0035985357 2.1432576e-09 -0.13120897 0.000241275 0.058337364 -0.0017424579 -0.057240866 0.13895825
0.2979296 0.046445653 -0.20776685 -0.11973836 0.22890241 0.21677275 -0.021598782 0.103973724
-0.006769398 -2.5965383e-09 0.2498146 1.6210647e-15 -0.19627088 0.023948133 0.1952458 -0.24830554
-0.08510146 -0.23326816 0.086763605 -0.0904689 -0.03926033 0.09685237 -1.0765836e-14 -0.14143497
0.0070968443 4.1319588e-09 0.18808289 -0.0071582305 0.082033455 -0.008371521 -0.1571693 0.08040557
00000000: b389 dc03 9f22 24a4 db28 d8b7 1300 0000
00000010: 0400 0080 74a8 069f f1fc 713c e000 a735
00000020: 920b 3d39 1900 0000 3fab 03aa f1fc 85b6
00000030: 2b5c d01e 42db dcb5 81fd 32bc 0400 0000
00000040: 2715 9ab9 242d 393a 0105 8ebb 856f 21ba
00000050: 0400 0000 0600 0000 0000 0080 1300 0000
00000060: 0400 0000 b51c 642a ea8d 80b3 aaac f73a
00000070: eaa9 ca3b 79e1 84ba fea0 37b2 6630 c72f
00000080: f4cf 713e ada0 d73d bcc9 0c3d ec94 18be
00000090: 789c ddbd 26f0 053e e6dc a2bc ee15 863e
000000a0: 2ee3 38bb 3281 30b1 c300 773e 0a00 0000
000000b0: 11fd 87bd a941 083c e67c b6bc 26ab 16bd
000000c0: 1229 cabd 26ae 85bd f383 df3d 8f97 083e
000000d0: cf56 5abc ce86 d93c 0100 0000 461b 71bd
000000e0: 4c42 483b dc5d 6731 def2 663d d80d 6abc
000000f0: c742 c7bc 7185 0d3b 3d46 c5bc 7eef 7f3d
00000100: dc04 893d 9f45 6e3e a816 3bbe 6cd0 583e
00000110: 6cda 8a3d a75c c8bc 0300 0000 c36d 523e
00000120: cef5 12bc 4945 14b1 298a e93b f82c 4da8
00000130: 5490 25bd 2d10 d73c c90f 443d 50f8 3fbe
00000140: 0ff3 943d 70bb 90bd 9160 463d bef2 eabd
00000150: c4c0 803d cebd 3a3d ec84 e5bc 6bc6 09bd
00000160: 69d5 6b3b 9648 1331 a55b 06be c4fe 7c39
00000170: 29f3 6e3d 2f63 e4ba 6675 6abd 124b 0e3e
00000180: 3b8a 983e cc3d 3e3d d5c0 54be 6339 f5bd
00000190: 6565 6a3e adf9 5d3e eeef b0bc 2df0 d43d
000001a0: d4d1 ddbb c96e 32b1 66cf 7f3e bb9e e926
000001b0: 3cfb 48be e02e c43c 84ee 473e cf43 7ebe
000001c0: ad49 aebd d9dd 6ebe 1eb1 b13d c247 b9bd
000001d0: 71cf 20bd 895a c63d a8f0 41a8 54d4 10be
000001e0: a58c e83b 18f9 8d31 cd98 403e 978f eabb
000001f0: 2801 a83d b428 09bc fdf0 20be adab a43d

layers.2.bias f4 [8]
1.5e-44 -0.010422279 -0.026255364 -0.0010375137 0.0076661753 0.032962892 -0.0012531434 -0.036630414
00000000: 0b00 0000 35c2 2abc 7d15 d7bc 2ffd 87ba
00000010: 8a34 fb3b 1904 073d 8440 a4ba c609 16bd

layers.4.weight f4 [1, 8]
1.3e-44 8.171954e-06 0.1503604 -0.087489635 0.3370977 -0.10409461 0.37324134 -0.37557092
00000000: 0900 0000 461a 0937 14f8 193e c42d b3bd
00000010: 1298 ac3e 8e2f d5bd 7d19 bf3e d54a c0be
